…
True, show_labels=True, simplify=True, single_cls=False, source=None, split=val, stream_buffer=False, task=detect, time=None, tracker=botsort.yaml, translate=0.1, val=True, verbose=True, vid_stride=1, visualize=False, warmup_bias_lr=0.1, warmup_epochs=3.0, warmup_momentum=0.8, weight_decay=0.0005, workers=0, workspace=None
Overriding model.yaml nc=80 with nc=10
WARNING no model scale passed. Assuming scale='n'.

                   from  n    params  module                                       arguments                     
Stem
3
128
[3, 128]
  0                  -1  1     93472  ultralytics.nn.modules.lsnet.Stem            [3, 128]                      
LSBlock
128
128
[128, 16, 4, 3, 1.0, 0, 14]
  1                  -1  1    336928  ultralytics.nn.modules.lsnet.LSBlock         [128, 16, 4, 3, 1.0, 0, 14]   
Downsample
128
256
[128, 256, 2]
  2                  -1  1     34688  ultralytics.nn.modules.lsnet.Downsample      [128, 256, 2]                 
LSBlock
256
256
[256, 16, 6, 3, 2.0, 1, 14]
  3                  -1  1   1975392  ultralytics.nn.modules.lsnet.LSBlock         [256, 16, 6, 3, 2.0, 1, 14]   
Downsample
256
384
[256, 384, 2]
  4                  -1  1    101888  ultralytics.nn.modules.lsnet.Downsample      [256, 384, 2]                 
LSBlock
384
384
[384, 16, 8, 3, 3.0, 2, 14]
  5                  -1  1   5880000  ultralytics.nn.modules.lsnet.LSBlock         [384, 16, 8, 3, 3.0, 2, 14]   
Downsample
384
512
[384, 512, 2]
  6                  -1  1    201856  ultralytics.nn.modules.lsnet.Downsample      [384, 512, 2]                 
LSBlock
512
512
[512, 16, 10, 4, 4.0, 3, 14]
  7                  -1  1  13015360  ultralytics.nn.modules.lsnet.LSBlock         [512, 16, 10, 4, 4.0, 3, 14]  
  8                  -1  1    394240  ultralytics.nn.modules.block.SPPF            [512, 256, 5]                 
  9                  -1  1    249728  ultralytics.nn.modules.block.C2PSA           [256, 256, 1]                 
 10                  -1  1         0  torch.nn.modules.upsampling.Upsample         [None, 2, 'nearest']          
 11             [-1, 5]  1         0  ultralytics.nn.modules.conv.Concat           [1]                           
 12                  -1  1    411008  ultralytics.nn.modules.block.C3k2            [640, 256, 1, False]          
 13                  -1  1         0  torch.nn.modules.upsampling.Upsample         [None, 2, 'nearest']          
 14             [-1, 3]  1         0  ultralytics.nn.modules.conv.Concat           [1]                           
 15                  -1  1    127680  ultralytics.nn.modules.block.C3k2            [512, 128, 1, False]          
 16                  -1  1    147712  ultralytics.nn.modules.conv.Conv             [128, 128, 3, 2]              
 17            [-1, 12]  1         0  ultralytics.nn.modules.conv.Concat           [1]                           
 18                  -1  1    345472  ultralytics.nn.modules.block.C3k2            [384, 256, 1, False]          
 19                  -1  1    590336  ultralytics.nn.modules.conv.Conv             [256, 256, 3, 2]              
 20             [-1, 9]  1         0  ultralytics.nn.modules.conv.Concat           [1]                           
 21                  -1  1   1380352  ultralytics.nn.modules.block.C3k2            [512, 512, 1, True]           
 22        [15, 18, 21]  1    823278  ultralytics.nn.modules.head.Detect           [10, [128, 256, 512]]         
YOLO11_LSNet summary: 573 layers, 26,109,390 parameters, 26,109,374 gradients, 22.2 GFLOPs

Transferred 1299/1305 items from pretrained weights
Freezing layer 'model.22.dfl.conv.weight'
AMP: running Automatic Mixed Precision (AMP) checks...
AMP: checks passed 
train: Fast image access  (ping: 0.10.0 ms, read: 507.7236.7 MB/s, size: 260.7 KB)
train: Scanning D:\Dataset\VisDrone2019-DET\train\labels.cache... 6471 images, 0 backgrounds, 0 corrupt: 100% ━━━━━━━━━━━━ 6471/6471  0.0strain: Scanning D:\Dataset\VisDrone2019-DET\train\labels.cache... 6471 images, 0 backgrounds, 0 corrupt: 100% ━━━━━━━━━━━━ 6471/6471  0.0s
…
