…
xes=True, show_conf=True, show_labels=True, simplify=True, single_cls=False, source=None, split=val, stream_buffer=False, task=detect, time=None, tracker=botsort.yaml, translate=0.1, val=True, verbose=True, vid_stride=1, visualize=False, warmup_bias_lr=0.1, warmup_epochs=3.0, warmup_momentum=0.8, weight_decay=0.0005, workers=8, workspace=None
Overriding model.yaml nc=80 with nc=10
WARNING no model scale passed. Assuming scale='n'.

                   from  n    params  module                                       arguments                     
  0                  -1  1       928  ultralytics.nn.modules.conv.Conv             [3, 32, 3, 2]                 
  1                  -1  1     18560  ultralytics.nn.modules.conv.Conv             [32, 64, 3, 2]                
  2                  -1  1     26080  ultralytics.nn.modules.block.C3k2            [64, 128, 1, False, 0.25]     
  3                  -1  1    147712  ultralytics.nn.modules.conv.Conv             [128, 128, 3, 2]              
  4                  -1  1    103360  ultralytics.nn.modules.block.C3k2            [128, 256, 1, False, 0.25]    
  5                  -1  1    590336  ultralytics.nn.modules.conv.Conv             [256, 256, 3, 2]              
  6                  -1  1    346112  ultralytics.nn.modules.block.C3k2            [256, 256, 1, True]           
  7                  -1  1    164608  ultralytics.nn.modules.block.SPPF            [256, 256, 5]                 
  8                  -1  1    249728  ultralytics.nn.modules.block.C2PSA           [256, 256, 1]                 
  9                  -1  1         0  torch.nn.modules.upsampling.Upsample         [None, 2, 'nearest']          
 10             [-1, 4]  1         0  ultralytics.nn.modules.conv.Concat           [1]                           
 11                  -1  1    127680  ultralytics.nn.modules.block.C3k2            [512, 128, 1, False]          
 12                  -1  1         0  torch.nn.modules.upsampling.Upsample         [None, 2, 'nearest']          
 13             [-1, 2]  1         0  ultralytics.nn.modules.conv.Concat           [1]                           
 14                  -1  1     32096  ultralytics.nn.modules.block.C3k2            [256, 64, 1, False]           
 15                  -1  1     36992  ultralytics.nn.modules.conv.Conv             [64, 64, 3, 2]                
 16            [-1, 11]  1         0  ultralytics.nn.modules.conv.Concat           [1]                           
 17                  -1  1     86720  ultralytics.nn.modules.block.C3k2            [192, 128, 1, False]          
 18                  -1  1    147712  ultralytics.nn.modules.conv.Conv             [128, 128, 3, 2]              
 19             [-1, 8]  1         0  ultralytics.nn.modules.conv.Concat           [1]                           
 20                  -1  1    345472  ultralytics.nn.modules.block.C3k2            [384, 256, 1, False]          
 21        [14, 17, 20]  1    432622  ultralytics.nn.modules.head.Detect           [10, [64, 128, 256]]          
YOLO11_cut summary: 151 layers, 2,856,718 parameters, 2,856,702 gradients, 23.5 GFLOPs

Transferred 358/409 items from pretrained weights
Freezing layer 'model.21.dfl.conv.weight'
AMP: running Automatic Mixed Precision (AMP) checks...
AMP: checks passed 
train: Fast image access  (ping: 0.10.0 ms, read: 619.8221.7 MB/s, size: 260.7 KB)
train: Scanning D:\Dataset\VisDrone2019-DET\train\labels.cache... 6471 images, 0 backgrounds, 0 corrupt: 100% ━━━━━━━━━━━━ 6471/6471  0.0strain: Scanning D:\Dataset\VisDrone2019-DET\train\labels.cache... 6471 images, 0 backgrounds, 0 corrupt: 100% ━━━━━━━━━━━━ 6471/6471  0.0s
…
